cnn_74k.pt (torch_old, 139250 bytes, 14 tensors)

weight f4 [16, 1, 5, 5]
00000000: 9077 c53d 01b4 703d 227b 95bd f796 0dbc
00000010: 1806 1b3e 887b f4bd 24de b2bd d1d8 c1bc
00000020: 9c21 31be 7673 8a3b 4e99 d13d 8410 163d
00000030: 86a4 bdbd 1b12 683c 4e2b 4b3e 0e52 d93c
00000040: 43d2 ecbd cf4e 32be 41a4 0f3e a0b2 663c
00000050: f18b 2fbe 0c49 04be b28a 6f3d 0951 47be
00000060: d16b 3ebe d6ac a43d b881 1d3d 5711 793d
00000070: f27c 253e 76e8 373e 5fa2 2a3e a556 2dbb
00000080: 7143 08be a290 1d3d a569 efbd 128f 133e
00000090: a103 fabd ccd4 86bc cfcd 3f3d ca14 ea3d
000000a0: 0b5c b23c 8a7c a7bd 6890 18be d0cb ddbd
000000b0: 3fa0 84bc 873a 1fbd 3eee 24be 0547 d6bd
000000c0: 419f d9bd 82d7 32bd 91e0 c1bd 781e 233e
000000d0: b5e0 04be 12a7 693d c496 1cbe 6fca 93bd
000000e0: 2ec1 383d a181 1dbe 7bba 6b3d e1f1 123e
000000f0: 8948 243e 3d59 88be a08c 35be 7f5a 123e
00000100: 9b85 76bd 6e92 0ebe 6f66 55be a02f 0d3e
00000110: d3f8 e3bc 0f3a d0bd fb38 14bb 1cd0 b4bd
00000120: 4298 393e 5e2c 2ebd 3570 0f3e f19d f5bd
00000130: 2ef4 25be 4adf 863d 44be c53d e9fb b73d
00000140: d1ee 483e f0a0 c7bd 0e2a e73d b0d8 16be
00000150: 6b68 0c3e f631 833d 1bda f7bd 65b0 e1bd
00000160: 382c 113e 7f43 b1bd feda 9a3d 43f5 a1bc
00000170: 741b f3bc f0dd 84bd 356d e5bd db58 2ebe
00000180: 608c fdbd 5195 3bbe 715b 543e b332 f7bd
00000190: f762 0c3e c6b2 2ebc a9c0 bebd ffb8 ccbd
000001a0: df5f 26be 13ce 5cbe ef0e 4abe 934f a8ba
000001b0: 3dff 13bd 0db8 2f3e 5457 19be d11e 9bbd
000001c0: 1ba9 01be 1137 383e 448e 05be 6ec8 5b3e
000001d0: 3ff8 0ebd 3882 b7bc bda1 c63d 8138 d43d
000001e0: 6a16 0cbe 7916 57bd 5499 25be f53d 19be
000001f0: 14ce 49bc d0c2 403e c0d7 723d c539 0e3c
00000200: 6655 afbc 361d 903e 632e f3bc 2b77 b73c
00000210: 9ab1 57bd 6749 033e 5fdd 8d3d 699f 6a3c
00000220: 6192 59bd 6b3e d33d e5de 413d 8e1b b9bd
00000230: 9804 273e 9856 94bd b30d ec3d 4145 013e
00000240: f8e5 5f3d 6093 0a3d fcd3 203e be54 85bd
00000250: 4d49 24be 522b f13d 1775 7cbc 8a09 c63d
00000260: 47b9 aebd a74c 003e 5a11 113e 66b9 eabd
00000270: bfea 253e a3ce a8be a54f 6bbe b964 483c
00000280: 6674 51be 62f2 f23d 93f1 733e 8ceb 813d
00000290: e0b7 fcbc a362 213d e3fa 09be d489 31be
000002a0: 3099 2f3c 07b9 743d 10f2 9cbd 2379 133e
000002b0: 1961 ecbc 14ec 29bb b3cb de38 c425 39bb
000002c0: 2fc0 0ebe 3011 eebd 3fc8 5ebe c043 0cbe
000002d0: 0ef2 4abe d716 79bd 9131 d0bd 734b 393e
000002e0: 609d 4a3e 58f6 413e 642c ef3d a3a9 383e
000002f0: a524 e63d 975c 13be c9db 253d 7f2f 4d3e
00000300: aebf 863d 1992 a03d 9336 ea3c 033b 313c
00000310: 90e3 bfbd 29c3 1cbe 830a edbd 5742 f13d
00000320: dc93 40bd 28bd 16be ffc5 643d 986c e2bd
00000330: 19f2 243e cec9 81be 08f5 0dbe 0a31 d03d
00000340: 7472 653d 5c88 0f3e 212e 23be 79fa 37bd
00000350: a672 ff3b 7efd 0cbd 1a30 b63d 3245 7c3d
00000360: 1f28 70be 0905 f9bd 20e7 213c 3904 b93d
00000370: b204 35be 18f4 2b3d 4a97 163d 1dc6 c3bd
00000380: 5efb 073e e514 b23d 2d2f ca3a 2f5e d93d
00000390: e8e6 d4bc b1b1 d5bd 6e79 c33d 9e4c e8bd
000003a0: e975 39be 067d 1c3e 2174 dcbd 6d4b 5cbd
000003b0: 2a23 87be 9e37 f53d f0b3 743d e122 9bbd
000003c0: b13f 19bc cc73 ef3d 3e49 243e 0da9 47be
000003d0: 846c 1d3d f154 233d 313d e2bd 7c7c e9bd
000003e0: 9263 55bd 9e51 72bd f350 13be 438c eabb
000003f0: 8339 003d b3dd de3c 95b4 7fbd d924 313e
0.09641945 0.058765415 -0.07298876 -0.00864195 0.15139043 -0.11937624 -0.08733776 -0.023662956
-0.17297977 0.00422519 0.10234319 0.036636844 -0.09259896 0.014164473 0.19840738 0.026528385
-0.11563542 -0.17412876 0.14027502 0.014080673 -0.17143227 -0.1291849 0.05848188 -0.19464506
-0.18595816 0.08040778 0.038453788 0.060807552 0.16160944 0.1795977 0.16663502 -0.002644935
-0.13306977 0.03846801 -0.11690072 0.14410046 -0.122077234 -0.016458891 0.046827134 0.114297464
0.021772405 -0.08178051 -0.14898837 -0.1082989 -0.016189693 -0.038874175 -0.16106507 -0.10462765
-0.106260784 -0.043662556 -0.09466661 0.15929592 -0.12976344 0.057044096 -0.15291888 -0.072163455
0.045106106 -0.15381481 0.05755089 0.14350082 0.16043295 -0.26630583 -0.17729425 0.14292334
-0.06018601 -0.13923046 -0.20839857 0.13787699 -0.02782861 -0.10167324 -0.002261697 -0.08828756
0.18124488 -0.04252278 0.14007647 -0.119930156 -0.16206428 0.06585558 0.09655431 0.08983595
0.19622351 -0.09747493 0.11287318 -0.14731097 0.13711707 0.06406014 -0.12102147 -0.11019973
0.14177024 -0.08655452 0.07561301 -0.01977027 -0.029676177 -0.06487644 -0.1120247 -0.17026083
-0.1238029 -0.18318678 0.20738007 -0.12070217 0.13709627 -0.01066274 -0.09314091 -0.09996223
-0.1624751 -0.21562986 -0.19732259 -0.0012841098 -0.036132086 0.17160054 -0.1497472 -0.07574237
-0.12662165 0.17989756 -0.13042551 0.21463177 -0.034904715 -0.02240096 0.09698818 0.1036234
-0.13680425 -0.052511666 -0.16171771 -0.14965041 -0.012317199 0.18824315 0.059287786 0.0086807655
-0.021403026 0.28147286 -0.029685205 0.02239569 -0.05265961 0.1282097 0.06926989 0.014320233
-0.053118113 0.1031464 0.04733171 -0.09038459 0.16310346 -0.07243079 0.115260504 0.12624075
0.054662675 0.033831954 0.15705866 -0.06510304 -0.16043587 0.11775841 -0.015408776 0.09669788
-0.085314326 0.1252924 0.14166775 -0.11461143 0.1620283 -0.3297015 -0.229796 0.012231045
-0.20454559 0.11862637 0.23822622 0.06343755 -0.030849397 0.039400708 -0.13474612 -0.17337734
0.010717675 0.05974677 -0.07663357 0.14401679 -0.028854894 -0.0025928067 0.00010623727 -0.002825127
-0.139405 -0.11624372 -0.21756075 -0.1369772 -0.19818899 -0.060812797 -0.10165704 0.18095188
0.19786596 0.18941629 0.11678389 0.18033461 0.11237458 -0.14390789 0.040492807 0.2003765
0.06579529 0.07840366 0.028590476 0.010817292 -0.09369576 -0.15308823 -0.115742706 0.117802314
-0.04701601 -0.14720595 0.055852886 -0.11055869 0.16107978 -0.25349277 -0.13863003 0.101656035
0.056017354 0.1401686 -0.15935566 -0.044916604 0.0077956496 -0.034421436 0.088958934 0.061589427
-0.23452805 -0.121591635 0.009881765 0.090340085 -0.17677572 0.041980833 0.036765374 -0.095592715
0.13279483 0.086953916 0.0015425436 0.10613667 -0.02598901 -0.104342826 0.09544645 -0.113427386
-0.18111385 0.15282068 -0.10764337 -0.05378287 -0.26394016 0.11973499 0.059741914 -0.07575012
-0.009353564 0.116920084 0.16043565 -0.19498082 0.038433567 0.03987593 -0.110468276 -0.11400697
-0.05209691 -0.059159867 -0.14386348 -0.007157834 0.031304847 0.027205324 -0.062428076 0.17299213

bias f4 [16]
00000000: d2ca 47bc 0269 b73d e32c bebd 4cea 8b3d
00000010: 8989 a83d f03b 23be 8094 cb3d 8f13 70bd
00000020: 3348 e9bd d8b4 48be 9007 8fbd 016e 3fbe
00000030: ea0d 2d3e 0be0 6dbd c998 41be cf0d 983d
-0.012194352 0.089555755 -0.09285905 0.06831798 0.08229358 -0.15940833 0.099404335 -0.058612403
-0.11390724 -0.19600236 -0.06983864 -0.18694307 0.16899839 -0.058074992 -0.18905939 0.07424509

weight f4 [16]
00000000: f559 5f3f 1573 413f d5c3 273f c961 aa3e
00000010: cc31 7a3f a0bb b53e 6007 693e 8078 933e
00000020: 7f0c 033f d2d1 433f b6e0 7f3f 7eed 0d3f
00000030: 874c 943e d632 863f b87f 033f 5577 d53e
0.8724664 0.75566226 0.6553319 0.3327773 0.97732234 0.3549471 0.2275672 0.28802872
0.5119094 0.76492035 0.99952257 0.5544051 0.28964636 1.0484264 0.5136676 0.41692606

bias f4 [16]
00000000: b92d 56be 5283 403d 3678 98bc 89b3 f23a
00000010: b199 9ebe 6edd 84bc 4ad5 20bc b4fd 293c
00000020: 6553 97bd a3ef a2bd 03cb 93be 99f3 8cbd
00000030: 0d01 4ebd 9429 86be f6e1 d5bd 70e0 83bc
-0.2091588 0.047000237 -0.018612009 0.001851664 -0.30976632 -0.016218867 -0.009816477 0.010375429
-0.07388953 -0.07955863 -0.28865823 -0.068824 -0.05029397 -0.26203597 -0.10443489 -0.016098231

running_mean f4 [16]
00000000: 426e d6c1 8e12 c1c0 e8f5 a3c1 f4e4 9ec1
00000010: bc09 20c2 c85a 3d42 37b9 0cc1 bfbb c73f
00000020: 57e1 c0c1 8c80 a3c1 2dbf 2ec2 6f98 86c1
00000030: 6b85 96c0 6f64 02c2 3577 2cc1 7908 8a41
-26.803837 -6.033515 -20.495071 -19.861794 -40.009506 47.338654 -8.795218 1.560417
-24.11003 -20.437767 -43.686695 -16.82443 -4.7037864 -32.59808 -10.779103 17.254137

running_var f4 [16]
00000000: 8862 3945 af40 3d45 2a35 1045 c540 e744
00000010: ddbe 8c45 8c22 9245 e49e 2744 0745 0245
00000020: b71b b245 ffc7 ab44 95e5 c045 390d 5a45
00000030: a15a 4844 b2e8 6c45 ac67 b444 7728 bf44
2966.1582 3028.0427 2307.3228 1850.024 4503.858 4676.3184 670.48267 2084.3142
5699.4644 1374.2499 6172.6978 3488.8264 801.4161 3790.5435 1443.2397 1529.2645

weight f4 [32, 16, 5, 5]
00000000: 0e9c 34bd dc5f 853c b800 babc e9a8 2ebd
00000010: 1116 6bbd 2c09 ae39 01e1 263d 1521 b33c
00000020: b465 343b d744 8f3c f215 1cbd 085e a2bc
00000030: 7f79 0ebd 4424 92bc 9939 013d 7467 763d
00000040: 2007 f03c 9f69 6a3b e376 88bc c25b 0f3d
00000050: fc1b afbb c832 b23c 1039 4bbc e445 033d
00000060: d0b4 c5bc 84f8 c6ba 53d7 cebc a981 0cbd
00000070: 0601 2c3c a922 81bc 9360 b3bc 9969 0cbc
00000080: ed9f 5c3d e1ad 01bc 27c1 a9bb 925e 46bc
00000090: 428d 243d d854 863c c8b3 b7bb ffa6 ed3b
000000a0: 513b 2eba 7075 b03d 3b9a ba3c d7fa c43c
000000b0: 9d05 d63c e04d 95bc 3404 8abc 8db7 f13c
000000c0: 2466 92bb efd8 193c e971 9eba 0e70 13bc
000000d0: fc94 203c 52be 3d3c 76e6 ae3c e0ec d1bc
000000e0: 325b 4d3c 2178 c43c 0c91 97bb 961e 203d
000000f0: a6d3 c63c 4719 6b3d 71b8 33bc f57a f43b
00000100: 42e1 1b3d 8555 d2bc 10b8 5bbc 2949 14bc
00000110: 5050 243d 10ed 303d 6cdc 233c 0674 a3bb
00000120: 59d2 00bd c423 873d 7ede 523d 83a1 b33c
00000130: de24 7a3d d5d9 17bd 978c e13c d6fa a7bb
00000140: a863 813d f0ff 033d 4536 283d 2975 6c3d
00000150: 138f bf3d f98f f4bb 6351 ba3c bf95 bb3c
00000160: f1e8 f63c 9ced 293d 756b e03c fcd2 65bb
00000170: 851a f13c 3eb3 babc ab80 c33d 03ab 8f3b
00000180: 9689 fa3c 7613 a9bc e77b 81ba 9355 853d
00000190: a7c2 11bd 7de8 31bd d254 8bbd 8d2d 0d3c
000001a0: 96ca 943c 7d74 593c ac86 51bc 5ff5 5cbd
000001b0: e32e 38ba f7e6 ee3c 87f7 4fbb c14a a0bd
000001c0: ed44 c83c 72bf 31bc 3023 65bc aee6 4dbd
000001d0: 7810 f3bc 22b3 01bd e46f edb8 75d3 cfbc
000001e0: d236 073d b56a 8dbc caa1 8bbc 66e0 a3b8
000001f0: 062a d03c 22e4 bc3c 5afb 33bb d871 d4bc
00000200: ea82 c93b 9b83 18bd f321 783c 26fb cbbc
00000210: 93a7 313d 00ff b23c 5154 4f3d 33c3 16bd
00000220: b5df 4dbd f539 8f3c 7cbd f3bc 2aaf edbc
00000230: a89d 8c3c ae0b 333d 9469 4b3d 2380 593d
00000240: c052 31bd aeb7 263d 7e69 ff3c 6065 e43c
00000250: 9e0e 5c3d e01f 313d 076a 93bc dfb3 093e
00000260: 9fdb 263d dd27 523d 2459 f43c 04f4 4fbd
00000270: 5c12 d9bc 4fc7 a3bb bb2c afbc b80c a53c
00000280: 6c69 bfbb 484c d83c f0a6 8abc 779e 333c
00000290: 20f1 1fbb 5d84 fbbc 221c 2cbc 7fd6 af3c
000002a0: 4b36 f53d bf0a 69ba 9edc 28bc 3789 41bd
000002b0: e5d2 b9bc 7c1d 5dbc f5b4 74bd 104d 383d
000002c0: 36f9 a0bd 4b4f 5dbc ef52 d2bc ae6d 6e3b
000002d0: 4b43 dd3c 50a1 1fbd 2d3c fe39 c87e bebc
000002e0: e50b 78bc 9973 f7bb 5c6d 63bc 2b87 863c
000002f0: ffc4 bdba 1e93 f33b 0221 4abc 960f a03c
00000300: 3c15 5bbc db22 2abd 599e d83c 69ad ef3c
00000310: 96a0 15bd 290d 9cbc f9be af3c f9f0 a4bc
00000320: 7a76 ea3c 6969 673b 8f0f 4d3b 5693 3abd
00000330: fe30 843c ad5d 0f3d e872 e93c 65fc 25bc
00000340: ba63 8e3b 696b c2bb 48f4 05bd aee3 66bd
00000350: 6712 2bbd d7d6 3a3c b2ee adbc c955 f83c
00000360: 8e72 dc3c b328 853c da30 5abb c979 bdbc
00000370: f829 19bc 9902 5c3d 880b ebbb 8366 e1bc
00000380: ec87 1b3d 5a45 473c b723 4f3d 67c1 87bc
00000390: 2d4a 1b3d fdcf 84bc 9468 3cba 272a 143d
000003a0: 17e4 de3b 34f9 893c 0732 1abc b182 df3d
000003b0: 866f 9d3d a227 febb 9b3d 8a3c a283 6dbc
000003c0: 00c8 3f3d 0295 303c 7113 213c 9867 5c39
000003d0: 7a6b cb3b c503 a63c 1379 97bc 55f0 b0bc
000003e0: 1ef3 0bbd a890 483d 0689 1f3b 0db4 97bd
000003f0: ed5c d9bc ff77 fe3c ca92 79bc bb31 57bc
-0.044094138 0.01628106 -0.02270542 -0.042641554 -0.05739409 0.000331947 0.040741924 0.02186636
0.002752644 0.01748888 -0.038106866 -0.019820228 -0.034783836 -0.017839558 0.03154907 0.060157254
0.029300272 0.0035768521 -0.016658252 0.034999616 -0.005343912 0.02175273 -0.0124037415 0.032049075
-0.02413407 -0.0015180265 -0.025249159 -0.03430334 0.010498291 -0.015763598 -0.021896636 -0.008570098
0.053863455 -0.007914991 -0.0051804963 -0.012107508 0.040173776 0.016397879 -0.0056061484 0.0072525735
-0.0006646412 0.086161494 0.022778621 0.024045391 0.026125723 -0.01822561 -0.016847707 0.02950647
-0.0044677425 0.0093901 -0.0012088391 -0.008998884 0.009801146 0.01158102 0.021350127 -0.025625646
0.01253395 0.023983063 -0.004625445 0.03909167 0.024270844 0.057397153 -0.010969267 0.0074609467
0.03805662 -0.025675545 -0.013410583 -0.009050646 0.040115654 0.04319483 0.010001283 -0.0049881963
-0.031450603 0.065986186 0.051481716 0.0219276 0.061070316 -0.037072975 0.027532859 -0.0051263375
0.06317836 0.032226503 0.04106738 0.05772892 0.09353461 -0.007463452 0.022743886 0.022898553
0.030140372 0.041486368 0.02739499 -0.0035068383 0.02943159 -0.022790547 0.09546026 0.0043844
0.030583184 -0.020639163 -0.0009878845 0.065104626 -0.035586026 -0.04343461 -0.068032876 0.008616817
0.018163007 0.013272402 -0.012788456 -0.05394494 -0.00070260296 0.029162867 -0.003173323 -0.07826758
0.024446929 -0.010848867 -0.01398544 -0.05026882 -0.029670939 -0.031664975 -0.00011321882 -0.025369385
0.033011265 -0.017262796 -0.01704492 -7.814243e-05 0.025410663 0.023058001 -0.002746305 -0.025933191
0.0061496394 -0.037234884 0.015144813 -0.02490003 0.0433727 0.02185011 0.05061752 -0.03680725
-0.05026217 0.01748369 -0.02975344 -0.029014189 0.01716502 0.04371231 0.049661234 0.053100716
-0.043291807 0.040702514 0.031178232 0.02788037 0.053724878 0.04324329 -0.017994894 0.13447522
0.04073679 0.051307548 0.029827662 -0.05076982 -0.026498012 -0.0049981247 -0.021383634 0.020147666
-0.0058414247 0.026403561 -0.016925305 0.010963074 -0.0024405196 -0.030702764 -0.010504754 0.021464584
0.11973246 -0.0008889846 -0.0103065055 -0.04725 -0.02268357 -0.013495799 -0.059742887 0.044995368
-0.07860033 -0.013507674 -0.025674311 0.0036381292 0.027009627 -0.0389722 0.0004849149 -0.023253813
-0.015139555 -0.007551622 -0.013881054 0.016421875 -0.0014478265 0.007433309 -0.012336971 0.019538682
-0.013371762 -0.041537147 0.026442694 0.029257493 -0.0365301 -0.019049244 0.021453368 -0.020134436
0.028620947 0.0035310632 0.0031289791 -0.045550667 0.016136643 0.035001446 0.028497174 -0.010130976
0.0043453844 -0.0059332144 -0.032703668 -0.056369476 -0.041765597 0.011403761 -0.021231983 0.030314343
0.026910093 0.016254758 -0.0033293278 -0.02312936 -0.009348385 0.053713415 -0.0071730055 -0.027514702
0.037971422 0.012162531 0.05057117 -0.016571714 0.037912536 -0.016212458 -0.0007187214 0.036173012
0.006802093 0.016842462 -0.0094113415 0.10913599 0.07687287 -0.0077561894 0.016875079 -0.014496716
0.046821594 0.010777714 0.009831295 0.00021019427 0.0062078806 0.02026547 -0.01849035 -0.021598974
-0.0341674 0.04896608 0.0024343147 -0.07407389 -0.026533568 0.031063078 -0.015232751 -0.013134415

bias f4 [32]
00000000: 8153 30bd a7b8 36bd 2ddc b93c 55a2 3dbd
00000010: 5f95 223d 3170 0d3d 809a c03b b27e bf3c
00000020: 5033 d83c bc7d d2bc 6b72 043d 967a a9bc
00000030: 9316 9d3b 95e2 01bd 3519 523d 6bd7 933c
00000040: f185 d3bc cb73 9239 87af b93c f216 873c
00000050: d3ad f73b ddab dfbc b9ec 4039 be55 ad3c
00000060: 0461 2dbd bdb3 1a3d d3e4 d0bc 450e 003c
00000070: 7673 8f3c 1ee7 173d c683 21bd 1f5c d53a
-0.043048386 -0.044609692 0.022687996 -0.04629739 0.039693233 0.034530822 0.005877793 0.023375843
0.026391655 -0.02569472 0.03233568 -0.020688336 0.004793951 -0.031710226 0.05129357 0.018047055
-0.025820704 0.00027933563 0.022666706 0.016490433 0.0075585633 -0.02730363 0.00018398733 0.02115905
-0.04232885 0.037769068 -0.025499737 0.007815902 0.01751111 0.037085645 -0.03943231 0.0016278065

weight f4 [32]
00000000: de66 9e3f 40ac 5b3f ea9e 8a3f e30f 703f
00000010: fb5c 753f 5b89 6a3f ccac 953f 1811 403f
00000020: ba37 8f3f 40d0 1e3f 1acc 0a3f bad9 993f
00000030: 6405 943f f542 8b3f a29d 273f 399f 1a3f
00000040: 70c1 2f3f 3026 5d3f 16fd 073f 65df 9d3f
00000050: b8f2 8e3f 4a15 fa3e d041 7d3f 27bd a53f
00000060: 2a37 9a3f 9cf9 fd3e 9309 863f 990a 7a3f
00000070: 968e 5a3f c22c 4a3f ff7b 703f 327e e03e
1.2375143 0.8580971 1.0829747 0.9377424 0.95845 0.9161584 1.1693358 0.75026083
1.1188881 0.62036514 0.54217684 1.201957 1.1564145 1.0879809 0.65474904 0.60399204
0.6865454 0.86386395 0.53120553 1.23338 1.1167822 0.48844367 0.98928547 1.294835
1.2048085 0.496045 1.0471672 0.9767242 0.8537382 0.78974545 0.93939203 0.4384628

bias f4 [32]
00000000: 4803 213e af4d 223e e404 0a3e 032b 353e
00000010: 3c9f 173e 40e5 253e a091 dc3d 1e49 373e
00000020: 9be7 fb3d a8a1 033e 4fa6 0e3e abc4 003e
00000030: 09d7 243e 50a4 213e c586 e83d 2e51 0c3e
00000040: e527 2d3e 8b85 173e ccc9 3f3e e3bb 173e
00000050: 3269 123e c83a d63d 1bb1 f03d b4eb f23d
00000060: 11eb 363e 9cda 0c3e e600 483e 9734 223e
00000070: 365d f33d 4cb3 0c3e 897a fe3d b6ea f93d
0.15723908 0.15849946 0.13478428 0.17692189 0.14806837 0.16200733 0.10769963 0.17898986
0.123000346 0.12854636 0.13930629 0.12575023 0.16097654 0.15785336 0.1135383 0.13702843
0.1690975 0.14797036 0.18729323 0.14817767 0.14297941 0.104604304 0.1175253 0.11861363
0.17863108 0.13755268 0.19531593 0.15840374 0.11883013 0.13740271 0.124257155 0.12202971

running_mean f4 [32]
00000000: ca27 11be 800c d7bd c842 e33d 3ea3 bf3d
00000010: 6ef7 0d3e 38df 963d 007f 193e d05c 6e3d
00000020: be8a 253e 5e1b 07bd e1d7 c73c 6a90 403d
00000030: 47f6 d9bc 1471 593d 9dbb 283e a18a 893d
00000040: 5125 95bd 37ac 79bb 7c79 36bd 5557 3a3d
00000050: b8e1 14bd fe97 f33d 9b21 a53c 4e35 01bd
00000060: 55c3 d1bd edc9 f43c b5d0 fdbc f6e5 1f3d
00000070: 0f5a 2c3d 5826 953d 0373 2d3c 86a5 b8bc
-0.14175335 -0.10500431 0.11096722 0.09357308 0.13863918 0.07366794 0.14989853 0.05819398
0.16166207 -0.032985084 0.024394931 0.047012724 -0.026606692 0.053086355 0.16477819 0.067158945
-0.07282508 -0.0038097033 -0.04454945 0.045493443 -0.036348075 0.118942246 0.020157626 -0.031544976
-0.10242335 0.029881442 -0.030983308 0.039037667 0.042078074 0.07282704 0.010586503 -0.022539865

running_var f4 [32]
00000000: 46cd 113c ae6c 363c 24a8 273c 7f54 2f3c
00000010: 36ae 543c 6502 293c eb09 853c af94 4b3c
00000020: c8e9 2e3c e282 0e3c 9c72 333c d1f2 4e3c
00000030: 36bf 3e3c 3726 523c a108 733c 42f4 723c
00000040: b062 2f3c f037 313c 0b27 593c 7c12 543c
00000050: 8cf4 593c 4a1d 4e3c 11a0 713c 7251 323c
00000060: 58d3 383c 6247 173c 7db1 243c 55f8 253c
00000070: d625 343c 3f0e 373c 5501 1e3c 17e7 113c
0.008899039 0.01113431 0.010232959 0.010701298 0.012980988 0.010315512 0.01624008 0.012425586
0.010675855 0.008698197 0.010952618 0.012631134 0.011642268 0.012826494 0.0148336 0.014828743
0.010704681 0.010816559 0.0132539375 0.01294386 0.013302933 0.012580225 0.014747635 0.010883676
0.011280857 0.009233328 0.010052082 0.010130008 0.010995349 0.01117283 0.009643872 0.008905194

weight f4 [10, 1568]
00000000: 64ee 7b3c c1e7 023c 4c93 42bd aa14 6abd
00000010: 2d67 f63c 8107 b7bd 92f4 e3bc 3b37 60bb
00000020: 5ccf af3c c657 3fbd 49f8 4b3d 1e3f 813c
00000030: c49f b6bc 0aef d4bc bd3f f83c acec 8f3d
00000040: b60d a4bc 84d9 a03d f970 c83d 5a6f 303c
00000050: e90c b73c 612b 853d 2820 c33d 9b81 9e3d
00000060: e0ad 493d 4a79 e7bc fc5c b63d 820f 7b3d
00000070: a4ea 693d 79f5 a63d 805d d23d ea8c 0d3c
00000080: 0bca 213d 570c e63c cbf1 f23c 7884 8dbc
00000090: 4d3a 0f3c ec2f ad3c c3be 24bc 9e1e f93c
000000a0: a61b 213d 84c1 25bd 76e6 01bd 8662 34bd
000000b0: 6bde 8abc 5ee0 0bbd 2c2f 92bc 3bc8 21ba
000000c0: 9741 4d3c 9c6e c6bc 4b5a 083c 9bc2 bfbc
000000d0: 422e 653c 435b 3f3c a988 8dbc f468 80bd
000000e0: 1479 20bc 6f13 32bc ae07 92bb e9ef 09bd
000000f0: 68d7 653b bb03 f7bd 9528 e3bd dbc4 cf3c
00000100: 5b45 033d cb5c 2bbc 97ff 5cbc c0d1 933b
00000110: 1763 2cbd 0c8f fd3a 1177 393d 69fd 0c3d
00000120: d838 8cbd 82da 4ebd 4b53 243d 1784 043c
00000130: 66f0 cdb8 0a10 583d 3c85 163d 526b aabd
00000140: 39f6 febc 310c 233c 454e 98bd b313 133c
00000150: 6daf ea3c 614d 843d b43a 51ba 2472 d6bc
00000160: bef2 0abd c7a6 4cbd 5793 373b 29a7 7fbc
00000170: d9a4 543d 9efd f73c bef3 cabb 2e2b 813d
00000180: 8fbd 7fbd 8227 46bd 60ba 643c 557a db3b
00000190: 15d5 1dbb 924e 77bb 7a2b 9e3a 3d47 983b
000001a0: 4d09 b53c 0371 d8bc f4b4 4fbb be66 273b
000001b0: 2c0f a3bb 8206 80bd 19c5 263c a677 3f3b
000001c0: a949 01be fad7 02bd 8cb1 24bd f4ff bfbd
000001d0: 9bec e2bd 593e cebd 8145 4fbc 1ebf 95bd
000001e0: f916 6dbd 0b8f 7abd 2693 c2bd b918 003b
000001f0: c083 93bd 5bcd b2bc 22f8 e1bc b5f5 13bd
00000200: 167e 85bd 57bf 0bbd 5f26 0bbd 26a9 30bd
00000210: f467 db3c 270e 8abc 3471 083d 7edc 32bd
00000220: 1762 4e3c 7098 07bd 825f 8a3c fa26 9d3c
00000230: 9524 9abc 0d64 de3c 4d42 4d3c 777f 24bc
00000240: 17d1 8f3c 9e7c 61bc 7c4f 843c 1c26 49ba
00000250: 9863 323c 1f94 a93a f467 083c 1293 1f3d
00000260: c1f4 0a3d 7e7b 7d3d 1b97 383d 54f9 223d
00000270: bad4 cc3c 52a4 173d 1d26 f1bc 3927 dfbd
00000280: 9a71 b1bc dce0 5f3b d5ed 4dbd 74ae eebd
00000290: 5166 72bd ff39 0abe df9c 91bd 9b13 1fbd
000002a0: 4fac afbd f9e8 d6bd 352f f2bb 0565 2b3d
000002b0: 84a6 043d 94c6 31bd b3c3 03bd e2a9 febd
000002c0: c020 52bd 6126 843c 050d 453d d154 f13c
000002d0: adb5 e4bc 3ffc d93c a735 6d3c b0a7 293c
000002e0: 860c 54bc 8c5e cd3c 73cc b63c b633 1a3d
000002f0: 0c8b f23c df6e c9bb f12c c7bc 9a10 82bd
00000300: 3678 cd3b 41d5 dbbc ea20 43bc 80f7 d5bc
00000310: bfcf 943a e5a8 443c 6223 833d 3ee7 44ba
00000320: 4fd1 b8bc 58f9 4abd 50fa c2bc 24c3 57bd
00000330: bde0 83bd 1aeb f03c 2583 0c3c b835 16bd
00000340: 8a92 aa3c 4ca9 c9bb 00e3 6ebd 4ced 4bbc
00000350: 213f 353c 1ae8 ab3d 624d 243c 5007 f83c
00000360: 9a52 833d bb3a 353d ed90 57bc 15ea bfbd
00000370: 50e1 523d 9ebf 1ebe ce0b 12be a84a e8bc
00000380: c0d8 a73c 81a2 903b 3615 73bd 2947 97bc
00000390: 5a3d 74bd 424f 25be 0aad b0bd 7ec6 033d
000003a0: 8ffb c83c f236 b2bd cf54 0bbd 87f4 013d
000003b0: 513c 0ebc b69f d5bc e5d9 21bc afa7 86bc
000003c0: 4294 49bd 9fb1 e5bc cfb7 f13b f940 0cbc
000003d0: 5bcb b4bc fda5 33bc ae17 41bd da0c 593c
000003e0: 461c 973c 1be8 773c 5117 35bd b652 163c
000003f0: 02f8 8b3c 74d2 2a3c c5a4 86ba de49 9c3d
0.015376661 0.007989825 -0.047503754 -0.057148613 0.030078495 -0.08936978 -0.027826581 -0.0034212607
0.021461181 -0.046714567 0.04979733 0.015777167 -0.022292979 -0.025992889 0.03030383 0.070275635
-0.02002607 0.07853988 0.09787173 0.010768736 0.022345023 0.065024145 0.09527618 0.07739564
0.049238086 -0.028256077 0.08904454 0.061294086 0.057108536 0.08152289 0.1027174 0.008639554
0.039499324 0.028082056 0.029656311 -0.01727508 0.008741927 0.021141015 -0.010055247 0.030410107
0.03933301 -0.040467754 -0.031713925 -0.04403927 -0.01695176 -0.03414952 -0.017844759 -0.0006171499
0.012527845 -0.024222665 0.008322309 -0.023408225 0.0139880795 0.011679473 -0.017277079 -0.06270018
-0.009794492 -0.010868891 -0.004456482 -0.03367606 0.003507102 -0.120612584 -0.11091725 0.025362423
0.032048564 -0.010459135 -0.013488672 0.004511088 -0.042086687 0.0019345 0.045279566 0.03442136
-0.068467796 -0.050501354 0.040118497 0.008088133 -9.8199394e-05 0.05274967 0.036748156 -0.08321251
-0.031123267 0.009951637 -0.07436804 0.008976865 0.028648103 0.06460071 -0.0007981465 -0.026177473
-0.033922903 -0.04996374 0.0028011405 -0.015603819 0.051915023 0.030272301 -0.006193607 0.06307064
-0.062436637 -0.04837752 0.013960451 0.0066979327 -0.0024083306 -0.003773604 0.00120674 0.004647164
0.022099162 -0.026421076 -0.003169355 0.0025543417 -0.004976174 -0.06251241 0.010178828 0.0029215603
-0.12625755 -0.031944253 -0.040208384 -0.09374991 -0.11080285 -0.100704856 -0.012650848 -0.07311843
-0.057883237 -0.061171573 -0.095007226 0.0019545986 -0.07202864 -0.021826437 -0.02758414 -0.036122996
-0.065181896 -0.034118023 -0.03397214 -0.043130063 0.026782967 -0.016852451 0.033311084 -0.04366731
0.012596629 -0.03310436 0.016891245 0.019183625 -0.018816272 0.027147317 0.012528014 -0.010040156
0.017555756 -0.013762621 0.016151182 -0.000767322 0.010888003 0.001293782 0.008325566 0.038958617
0.03392482 0.06188535 0.04506598 0.03978856 0.02500378 0.037021942 -0.02943712 -0.10896153
-0.021660615 0.0034161126 -0.050275642 -0.11654368 -0.059179608 -0.13498686 -0.07109999 -0.038837057
-0.08577787 -0.10493655 -0.0073908814 0.041844387 0.032385364 -0.04340227 -0.032169055 -0.12434746
-0.051300764 0.016131582 0.04810812 0.029459389 -0.027918661 0.026609538 0.014478124 0.010354921
-0.012942439 0.025069498 0.022314286 0.03764697 0.029607318 -0.00614725 -0.024313422 -0.06350823
0.006270434 -0.026835086 -0.011909703 -0.026118994 0.0011353417 0.012003158 0.06403233 -0.00075112644
-0.022560744 -0.0495542 -0.023800999 -0.052676335 -0.0643935 0.02940898 0.008576189 -0.036672324
0.020821828 -0.006154215 -0.058321953 -0.012446713 0.011062414 0.08393879 0.010028215 0.030276924
0.064122394 0.044245463 -0.013157112 -0.093708195 0.051484406 -0.15502784 -0.14262316 -0.028355911
0.020489097 0.004413903 -0.0593464 -0.018466549 -0.059628822 -0.16143516 -0.086267546 0.03217172
0.024534015 -0.08701886 -0.034016427 0.03172734 -0.008681373 -0.026077133 -0.00987861 -0.01643738
-0.049213655 -0.028038798 0.007376648 -0.008560413 -0.022069624 -0.010964868 -0.047141723 0.013247693
0.018446099 0.015131022 -0.04421169 0.009174993 0.017086033 0.0104261525 -0.0010272494 0.076312765

bias f4 [10]
00000000: 9a2b 043d 2bd0 903c b9d6 7ebc 156c b2bc
00000010: ab4c 193c c0e1 3339 cb10 9d3a eb8d 82bc
00000020: b6ff b23b 9088 dfbb
0.032268144 0.017677387 -0.015554124 -0.021780053 0.009356658 0.00017154869 0.0011983154 -0.015936812
0.005462612 -0.0068216994
