cnn_mnist.pt (torch_old, 139381 bytes, 14 tensors)

weight f4 [16, 1, 5, 5]
00000000: 64ba b6bd d478 173e 6302 16be b370 a43c
00000010: 3a8f 90be 8834 633c cfd6 2e3e de48 83be
00000020: 7cf4 2cbe 2821 3dbe 8bb6 0d3e 0983 db3d
00000030: 0bbd ccbc 5eef 06be 52af 25be bbb2 343e
00000040: e1a3 a43d a0be ebbb 4942 96bd 1fd0 853d
00000050: b9d9 203d 35ad d83d 1525 683e ede6 46be
00000060: 98b6 bc3d 42d8 78be 0b08 54be 4e5c df3d
00000070: 58dd d1bd 49d1 e4bd 82d8 99be 53e9 b0bd
00000080: 911d fcbd 3b8c a03d 6b73 2f3d ecd7 2b3e
00000090: 1219 4e39 3b94 59bd 5107 ebbd 14fe 84be
000000a0: 47a8 b13d ab76 513e b400 093e 85fe 52bc
000000b0: 4b85 f23d a719 d4bc 3bf3 d43d 9eb8 ad3d
000000c0: 803b de3d 7f09 663d 95e9 953c 0d93 0ebe
000000d0: c2b0 c4bd 0efa fc3d 857c 3d3e cac1 3dbe
000000e0: d781 df3d c296 093e 0968 e23d c736 62be
000000f0: 7606 2b3e 3625 f33d f0c5 c7bd 68f1 52be
00000100: 526f 88bc c8f6 4fbd 9152 dc3a 5278 7cbe
00000110: dd3b cfbd 2733 4e3e 2b10 f83d 01f1 56be
00000120: 6853 063e 8c8b 053e 1f58 e5bc 0a18 86bc
00000130: ac1a df3d 302b bd3d 2289 8abe a815 373e
00000140: 4ccd 33bd 6664 fe3c 025c 243d dc40 3e3e
00000150: 3411 c83c 7129 043e ec6f 39be 83cd a5be
00000160: 2781 5abd 313a 14be db87 e03d f9b3 31be
00000170: e829 7a3e b548 a63e 6b17 3dbd d0ef a13d
00000180: 1180 06bd ba28 ba3b 7746 f7bd 894f a5bd
00000190: 8ec1 f9bd 49f1 c43d 9f48 b13d c320 663e
000001a0: dddf 9a3c 3657 8cbc 6542 b33b c34d c4bc
000001b0: a127 26be 8dfd 9dbd 3b41 30be 6152 3fbe
000001c0: 2c32 8abe de9b 20be cd6a 17be 6534 81bd
000001d0: 8708 15be da29 253d a922 78bb ffe6 ca3d
000001e0: e444 83be 0daf fa3d 0058 8e3c 2726 8a3d
000001f0: d8ec 213e 4f55 06ba 200e 663d 2788 34be
00000200: b084 9c3d 4cd7 9d3d a3e2 a03d c3dc 66be
00000210: 7e0c c33c 5c12 7bbd 62ad 10be 21ba 0ebe
00000220: 2681 53be 6271 c23d 2d0a 223c 3a06 4e3e
00000230: 0a15 413e 6b17 603e c729 8b3e 57f7 263e
00000240: bce2 be3d 8605 5cbe 3d11 033e 4863 8dbe
00000250: f60d 56be a4ef 52be 82d4 0d3e c3ba de3d
00000260: ab67 b63d ebc1 d4bd 8005 053e 7e5b 75bc
00000270: 4c1c a33d 479d bb3d ca33 19be 2efe 4d3d
00000280: 9c94 64be 2087 893e 7a6a 0dbe d5a0 623d
00000290: 8def de3d e65a eebd 83da cf3d 8e43 a6bd
000002a0: 7b58 073e a157 6cbe e11b e5bc 31ba 1a3e
000002b0: bde6 d43d 6e44 08bd e827 eebe c6e1 d4bd
000002c0: 7001 93be 1904 9dbe e29a ddbc 2b32 74bd
000002d0: e27b 27be 4a3c 4cbe cbef 7b3d dba8 a9bb
000002e0: 17b6 653e 7094 083d 0d3e 92bd 8a07 463e
000002f0: 1776 0f3e 6545 223e ac31 47be ce2b 21bd
00000300: f135 c43d b52b 0d3c 1606 293e 8a1c abbe
00000310: 669e 83be 47d1 d8bd 096a 903d 0814 9d3c
00000320: 358d 523c 9e65 903d 6435 673e bd8e 963d
00000330: 4b68 343e 988f fdbd d6c0 83be e364 f6bd
00000340: 6a37 a43d 690b cfbd 2ae9 40be 8137 75be
00000350: 7c3b 05be 996b 54be cb3f 6cbd ce69 333e
00000360: a9cc 8ebd bf16 c8bd 97e8 61bd e710 8cbd
00000370: 8bae df3d 2b33 2f3e 9a4a c9bc 5460 043d
00000380: fe2f 94bc 5b25 c4bd 5147 4d3e ea97 073e
00000390: 1c74 923d 2517 153e c668 11bd 4201 dc3d
000003a0: e64a b53d 667f 883d 3b32 19be ef23 0dbd
000003b0: 233c cdbb c8bc 9ebb 53f7 103e 15de 8dbe
000003c0: 4d10 6f3e fdc4 1e3e 149e 0bbe 53c0 d9bd
000003d0: d199 8bbe ee73 6abe a94f 66be df7c 05be
000003e0: ea22 6dbe cb82 843c 8480 d7bd 9dee 84bd
000003f0: ca7e eb3d ab5c 55be 3944 e03d 0c52 0d3e
-0.0892227 0.14792186 -0.14649348 0.02007327 -0.28234273 0.013867505 0.1707413 -0.2564153
-0.16890138 -0.1846968 0.13839166 0.10718352 -0.024992486 -0.13177249 -0.1618016 0.17646305
0.0803907 -0.007194355 -0.07336862 0.065338366 0.039270137 0.105799116 0.22670396 -0.19424029
0.092145145 -0.24301246 -0.20706193 0.109062776 -0.10247296 -0.111727305 -0.30047995 -0.08638253
-0.12310327 0.07839247 0.04283468 0.16781586 0.0001965503 -0.05311988 -0.11476005 -0.25975096
0.086746745 0.20455424 0.13379174 -0.012878065 0.1184183 -0.025891138 0.10397955 0.084824786
0.108511925 0.0561614 0.018299857 -0.13923283 -0.096040264 0.12352382 0.18504532 -0.18530956
0.10913437 0.13436416 0.110549994 -0.22091208 0.16701683 0.11872332 -0.097545505 -0.20599902
-0.016654644 -0.05077246 0.0016809275 -0.24655274 -0.1011884 0.201367 0.12112459 -0.20990373
0.13117754 0.13041514 -0.027996121 -0.016368885 0.10893759 0.09236753 -0.2705775 0.17879355
-0.04389696 0.031053733 0.040126808 0.1857943 0.024422266 0.12906434 -0.18109101 -0.32383355
-0.053345826 -0.14475323 0.109634124 -0.1735381 0.24430048 0.32477346 -0.04616491 0.07907069
-0.032836977 0.0056811245 -0.12073987 -0.08071811 -0.12195121 0.09616334 0.086564295 0.22473435
0.018905574 -0.01713143 0.0054705613 -0.02396286 -0.16226055 -0.077143766 -0.17212383 -0.18683769
-0.26991403 -0.15684459 -0.14786835 -0.063088216 -0.14554034 0.040323116 -0.0037862456 0.0990734
-0.25638497 0.122404195 0.017375946 0.06745558 0.15813005 -0.00051244063 0.056165814 -0.17630063
0.07642496 0.0770708 0.078557275 -0.22545151 0.023809668 -0.061296806 -0.1412864 -0.1393819
-0.20654735 0.09494282 0.009890121 0.20119563 0.18855682 0.21883933 0.2718031 0.1630529
0.0932059 -0.21486482 0.12799545 -0.27614808 -0.20903763 -0.20599228 0.13850597 0.10875466
0.08906492 -0.103885494 0.1299038 -0.014975427 0.079643816 0.09160858 -0.14961162 0.050291233
-0.22322315 0.26860905 -0.13810149 0.055329163 0.108855344 -0.11638431 0.101491 -0.08118354
0.13217346 -0.23080303 -0.027967395 0.15110089 0.10395572 -0.033268385 -0.4651482 -0.10394625
-0.28712034 -0.3066719 -0.027051393 -0.059618156 -0.16355851 -0.19944873 0.06150798 -0.0051776
0.22432743 0.033344686 -0.071407415 0.19338813 0.14009891 0.15846784 -0.19452542 -0.039348416
0.09580601 0.008616378 0.16506228 -0.3342021 -0.25706786 -0.105867915 0.070514746 0.01917459
0.012851049 0.07050632 0.2257896 0.07351444 0.1761791 -0.12380904 -0.2573306 -0.12030961
0.08018382 -0.10109598 -0.18838945 -0.23946954 -0.13010973 -0.2074417 -0.057678025 0.1752083
-0.069726296 -0.097699635 -0.055153456 -0.06839161 0.10921963 0.17109363 -0.024571706 0.03231843
-0.01808929 -0.095774375 0.20046736 0.13241544 0.07151052 0.1455961 -0.03550031 0.107424274
0.08852176 0.06664924 -0.14960568 -0.034458097 -0.0062632724 -0.004844282 0.14156847 -0.27708498
0.23346062 0.15504833 -0.13634521 -0.10632386 -0.2726579 -0.22895786 -0.22491325 -0.13035916
-0.2315785 0.016175648 -0.10522559 -0.06490824 0.114987925 -0.20836131 0.109505124 0.1380083

bias f4 [16]
00000000: a744 2bbe ed61 b53d 9319 7e3d 5b1d 183e
00000010: bf21 c6bd 0141 32be bde5 2cbe fab6 333e
00000020: c4e3 e5bc 7796 cb3c 9c82 d5bc 0273 c2bd
00000030: 7c9f b9bd 89ea 1b3e 4b28 593d aa76 cbbd
-0.16725408 0.088565685 0.06203611 0.14854948 -0.09674405 -0.1740761 -0.16884513 0.17550269
-0.028062709 0.02485202 -0.026063256 -0.09494592 -0.09063622 0.15226187 0.053016942 -0.09934743

weight f4 [16]
00000000: 7b87 263f 29b7 903e e132 eb3e ca62 743e
00000010: 05d4 3b3f c9b4 c13e 008b be3e 96e4 d13e
00000020: ef9e 453f 4b8c ff3e fe05 383f 4f7c 013f
00000030: cc61 da3e 8cec 233f 7eaf ce3e 1bf1 373f
0.65050477 0.2826474 0.45937255 0.2386581 0.7337039 0.3783324 0.37215424 0.4099471
0.7719564 0.49911723 0.71884143 0.50580305 0.42652738 0.64032817 0.40368265 0.7185227

bias f4 [16]
00000000: 78e2 5bbe 9c06 70be 4872 31be 751b 94be
00000010: 7774 bdbe 88c3 48be 58a9 b4be 2b8c 28bc
00000020: 3726 f7bd b0b2 d2bd 3427 27be 91fc fcbe
00000030: 7bcc 5abe 72ae 21be 44de 84be 1f96 33be
-0.2147311 -0.23440021 -0.17328751 -0.28927198 -0.37002918 -0.19605839 -0.3528545 -0.010287325
-0.12067836 -0.10287988 -0.16323549 -0.49411443 -0.21367066 -0.15789202 -0.25950825 -0.17537735

running_mean f4 [16]
00000000: 77fe 33c1 793f 34c1 165a babf 9b3c 1440
00000010: c12c e6c1 589d bec0 8f9c 1d3f 7c1c 01c2
00000020: 19c8 a7c1 4bf5 97c1 3fbe b1c1 2dc3 d241
00000030: 5a5f a5c0 28fe 0ec2 2a68 cf3d 925a d8c1
-11.249625 -11.265496 -1.4558742 2.316199 -28.771852 -5.956707 0.61567014 -32.277817
-20.972704 -18.994772 -22.217894 26.3453 -5.1678896 -35.7482 0.101272896 -27.044224

running_var f4 [16]
00000000: d17d a745 17b2 6b45 1293 4844 519a 0644
00000010: 7cee a245 766c b044 bc50 1345 e988 1a46
00000020: 19ee 6c45 ad94 b945 d949 6a45 b80b 0e45
00000030: 2050 4844 69cf a845 7b5e f144 09c7 7345
5359.727 3771.1306 802.298 538.4112 5213.8105 1411.3894 2357.046 9890.228
3790.881 5938.5845 3748.6155 2272.7324 801.25195 5401.9263 1930.9525 3900.4397

weight f4 [32, 16, 5, 5]
00000000: 27c6 ca3c 0616 ad3c c1c9 ec3d 96b8 e23d
00000010: d4d0 bcbd 3ba6 a63c c951 4f3d 7609 b43d
00000020: 1b23 ffbc 5c01 1d3d 34c7 393e a49a d73d
00000030: 767c ba3d ea42 efbd fe1e e63c 11a5 263d
00000040: 4cba 9bbd 1457 b6bc d645 8ebd bab8 4a3b
00000050: c4bc 7fbd 2134 66be 30d1 123d f189 ebbc
00000060: 4a01 063d dcf3 73bd 7f5c 38bd eaa2 50bd
00000070: 12df 81bd 17e0 c03c 3298 83bd 5731 9ebd
00000080: 223b f9bd 3395 0c3d b8f7 98bc 5fcc 013e
00000090: 576b c2bd c632 8f3d dc49 9e3a fe57 833d
000000a0: 9468 003e 2649 923d ee9a a33d 013d 653a
000000b0: 104d 893c af51 733d d286 883d 3cda ca3c
000000c0: 35b1 a2bd df0f 65bc 6d04 50bc c154 433d
000000d0: c943 f53d 1b88 9bbb bf0d 3ebd 4887 2ebd
000000e0: a397 3dbd b2f3 85bc 1ee0 8ebd c0a4 843d
000000f0: b38e a939 bfff 94be c5c5 8c3c b2de a43c
00000100: dc4e 2ebd 9685 813d 7ed4 82bd 9949 0c3d
00000110: 5b3c 1c3c d84f 9a3d 185f 2cbc 57aa 4f3d
00000120: 171e 8dbc b7d0 0ebe 0972 d5bd 2c75 693d
00000130: a5ea 31bd 1a0e a5bd 1e2b 983d 3f05 4a3d
00000140: 163d c4ba 85dc 73bc 40b9 93bd 1476 27bb
00000150: 6465 2fbc d3db 7abd a384 b93d 1640 62bd
00000160: c6e2 1c3a b3f1 3d3d 37be febd 7ffc e73d
00000170: 35fe 95bd 9c32 18be 3280 813d 571c 8d3c
00000180: 8dd2 1cbe 2a99 4dbe 1001 bc3d dff9 203e
00000190: 2052 793d 1942 88bd 2dbd 14be a899 f6bd
000001a0: 165a a43d ac4b a13c c93e 39be 2192 813c
000001b0: 09e4 a2bc 73ca 71bd 8f11 55bd 1709 83bd
000001c0: a163 603d c031 be3d e31b ec3b a5f2 fcbc
000001d0: 25fb c53c 642e 49bd 6d02 b3bd 0705 a9ba
000001e0: b682 31bd 9e68 c63d 8203 babd d75e 4ebe
000001f0: de63 0ebd b071 fbbc d469 873c ca16 4b3d
00000200: 3995 cc3d d681 cf3d 14d8 96bd 1fc9 a2bb
00000210: 0cfe 1f3d 3d3c d23d 1f58 e23d cc42 ad3d
00000220: 5945 3c3e ca52 2f3e a0d7 3e3d c91c 303d
00000230: ccad 963d 1914 983d 22a4 de3d b6ce 78bb
00000240: dc98 203d 98a3 28be 5a6c 173c b5e0 a73d
00000250: 7ab6 cd3d 7f43 583c e19d 72bb 7c91 f63d
00000260: 58e2 b53d 8071 8d3d c5fd f93c 7e0a 0dbd
00000270: 762b 7cbd 6314 33bb e5e1 93bc d2bc 48bd
00000280: 38cf cbbd c1d0 18be 7b70 64bd 91b0 fabd
00000290: a0d8 1d3d 6bd5 253d fcff 6ebd 0c94 7fbd
000002a0: 6c2a 9a3d 34d8 2dbd 4b57 4d3d 5c00 66bd
000002b0: 76b1 0a3d 4f48 ad3b 5a9e 8fbc 1525 eb3d
000002c0: bc2d b53d f5d1 513e 2fce 7e3d 30f5 0d3e
000002d0: 1f9c 183e 525b 513e 937a 623d 78ea eebd
000002e0: d10e 0c3c 0d67 b2bc 56f2 9f3b a904 a7bb
000002f0: 03e7 99bd ed08 d6bd 4f14 04be e456 78be
00000300: 8c2d d6bd 160c 9fbc 41bc ddbd 375e 08bd
00000310: 01b2 433d a15b 583d 6695 ae3d 5908 a1bc
00000320: fdec 85bd a784 b6bd 4f4a 38be a64a 223d
00000330: fe3c 113d 6edd 19be f276 34be 12ae 24bd
00000340: 7ae7 8a3c 8f58 98bd e99c 90bc 95a8 3d3d
00000350: 677e 083e c30b 8dbd 7403 9ebd ba10 a53d
00000360: bca6 223e 13b5 aabc 660f 7cbd bdc6 c1bb
00000370: 057c 163d 0ae5 723d 71e6 8ebd 170b 1bbd
00000380: c6c0 753d 9793 5fbd caa3 de3d 96ca c83d
00000390: f248 223e 01b0 053e 7e65 92bc b38d 83bd
000003a0: 2bf9 0dbd a1c0 44bd 729b 813b 39ae aa3c
000003b0: 33c3 6139 b9d6 33bd 769e 21bd b852 3fbc
000003c0: a5b7 443d 3ff4 e33d d00b 9a3d 2ae5 cabb
000003d0: 20e4 beba 800a e83d dc61 e33d 104a dbb9
000003e0: bd73 523d b317 e8bd 43c0 123e ad15 efbc
000003f0: e8ae d53b e655 a1bd 9d42 263d ab31 573c
0.02475269 0.021128666 0.11561919 0.11070363 -0.09219518 0.020342937 0.050615106 0.08790867
-0.03114467 0.038331375 0.18142396 0.10527542 0.0910577 -0.11682685 0.02809095 0.040684763
-0.07603893 -0.022258319 -0.06946914 0.003093286 -0.06243588 -0.22480823 0.035844028 -0.028752299
0.032716073 -0.059558734 -0.045010086 -0.050936617 -0.063413754 0.023544354 -0.06425513 -0.077242546
-0.12169482 0.034321975 -0.018672809 0.12675618 -0.0949313 0.06992106 0.0012076455 0.064132676
0.12539893 0.07142858 0.07988535 0.0008744747 0.01676038 0.05940407 0.0666634 0.024762265
-0.07943956 -0.013980835 -0.012696368 0.04768825 0.119758196 -0.0047464496 -0.046399828 -0.042609483
-0.04628719 -0.016351555 -0.06976341 0.06476736 0.0003234051 -0.2910137 0.017184148 0.02012572
-0.042555675 0.063243076 -0.06388186 0.034249876 0.009535874 0.0753476 -0.010520719 0.050699558
-0.017226262 -0.13946806 -0.10422141 0.05699651 -0.043436665 -0.0805933 0.07430099 0.04932141
-0.0014971818 -0.014884119 -0.07213068 -0.0025552558 -0.010705326 -0.061244797 0.090585016 -0.0552369
0.00059847196 0.04637308 -0.12438624 0.11327457 -0.07323877 -0.14863056 0.063232794 0.017225428
-0.15314694 -0.20077959 0.0917989 0.15720318 0.060869336 -0.06653232 -0.1452529 -0.12041026
0.08024995 0.019689403 -0.18090357 0.01581675 -0.019884126 -0.05903096 -0.0520187 -0.06398218
0.054782514 0.09286833 0.007205473 -0.03087742 0.024167607 -0.049116507 -0.08740697 -0.0012895175
-0.043337546 0.09687923 -0.090827 -0.20153366 -0.03476321 -0.030693859 0.016529955 0.04958228
0.099893995 0.10132186 -0.073654324 -0.004967823 0.039060637 0.10265396 0.11051964 0.08460006
0.18385829 0.17121425 0.046592355 0.0429962 0.07357368 0.07425708 0.108711496 -0.0037965006
0.039208278 -0.16468656 0.009242142 0.08197156 0.1004457 0.013199686 -0.0037020373 0.12039468
0.08881062 0.06906414 0.030516515 -0.034433834 -0.061564885 -0.0027325384 -0.01805205 -0.049008198
-0.09951633 -0.14923383 -0.055771332 -0.122407086 0.038536668 0.040486734 -0.058349594 -0.062397048
0.075276226 -0.042442515 0.050132077 -0.056152686 0.033860646 0.005288161 -0.017531563 0.11481682
0.08846614 0.20490249 0.06220835 0.13863063 0.14903305 0.20444992 0.055292677 -0.11665815
0.008548454 -0.021777654 0.0048811836 -0.005096991 -0.07514765 -0.10450921 -0.12898372 -0.24251896
-0.10457906 -0.019414943 -0.10826922 -0.033292975 0.04777718 0.05282176 0.08524589 -0.0196573
-0.065393426 -0.0891202 -0.17997096 0.03962197 0.035458557 -0.15025875 -0.17623499 -0.04020507
0.01695608 -0.07438766 -0.017652946 0.04630335 0.13329469 -0.06887009 -0.077155024 0.08059831
0.15883917 -0.020838296 -0.061538123 -0.005913584 0.036739368 0.05930046 -0.06977547 -0.037852373
0.059998296 -0.054584112 0.10871084 0.09804265 0.15848139 0.13055421 -0.01787066 -0.06423511
-0.034661453 -0.048035268 0.003955298 0.020835029 0.0002153039 -0.043905947 -0.03945776 -0.0116774365
0.0480267 0.111305706 0.07521784 -0.0061918693 -0.0014563836 0.11330128 0.111026496 -0.00041826116
0.051379908 -0.11332645 0.14331155 -0.02918514 0.0065210946 -0.07877712 0.04059087 0.0131344

bias f4 [32]
00000000: ad8b 57bd 0459 43bd 7491 4dbd eb86 86bc
00000010: 9c82 133d 614e ac3d dfda 193d 69d7 fbba
00000020: 582f 143d 56cb ccbc 7f95 1b3b 96e9 e1bc
00000030: fda3 0ebd d410 133d 60fb 05bd 9aad 133d
00000040: dd27 923c ba2b 333b b51b 3ebc 0f02 033d
00000050: 19be 7e3d 7d1c 6f3d b75c 4dbb 6b88 083b
00000060: 211d 363d 38b1 c63c 2390 813b 0dc3 b73a
00000070: 32ce a13b fcac 9c3c 018f db3c c037 bf3b
-0.05262344 -0.047692314 -0.050187543 -0.016421756 0.03601323 0.08413387 0.037562247 -0.0019213978
0.036177963 -0.024999302 0.002374023 -0.027577203 -0.03482436 0.03590472 -0.032710433 0.03605423
0.017841274 0.0027339295 -0.011603286 0.031984385 0.06219301 0.058376778 -0.003133578 0.0020833265
0.044461373 0.024254426 0.00395395 0.0014019922 0.0049379105 0.019125454 0.026801588 0.0058355033

weight f4 [32]
00000000: 42cf de3f c6f2 873f fe2e 8d3f c95c aa3f
00000010: 3851 9e3f 7272 c53f 7492 803f 4457 853f
00000020: 3c24 5f3f 9578 b03f 9572 a53f 74f0 843f
00000030: f773 c13f 5d24 8c3f 42a7 a33f 33bf ae3f
00000040: f142 c63f 4d7d 7c3f d8eb 533f 9e82 8d3f
00000050: a668 cc3f 2933 6c3f c09a 5e3f ae14 613f
00000060: ab56 943f 895f bf3f 05a3 a33f 1d53 493f
00000070: f381 bb3f 1a9f 723f 3e64 a03f f1c5 a43f
1.7407 1.0620964 1.1029966 1.3309566 1.2368536 1.5425551 1.0044694 1.0417256
0.87164664 1.3786799 1.2925593 1.038588 1.5113515 1.0948597 1.2785418 1.3652099
1.5489179 0.98628694 0.82781744 1.1055486 1.5969436 0.92265564 0.8695488 0.8792218
1.1588949 1.495103 1.2784125 0.78642446 1.4649032 0.9477402 1.2530591 1.2872907

bias f4 [32]
00000000: 5d79 7fbe a4f8 07be ca5a 29be 969a 4dbe
00000010: acac fcbd 6129 abbd b9d2 09be 60c2 d1bd
00000020: f69c c9bd 2d2e ccbd 29cd 13be 10d2 afbd
00000030: 4f1f 95bd 30db 83bd 48df 30be f122 46bd
00000040: 85f9 40be b744 f73b 1065 20bd c46f b0bd
00000050: e9b5 04be ff5c cebd 03cd 0dbe b3bf c7bd
00000060: c093 d9bd 03b0 49be 26dc 0fbe 18ce fbbd
00000070: 4042 1cbe 8306 20bd d3c6 1fbe 765a 1c3d
-0.2494864 -0.13278443 -0.1653854 -0.20078501 -0.12337622 -0.08357502 -0.1345929 -0.10242152
-0.09844391 -0.09969745 -0.14433731 -0.08584988 -0.07281362 -0.06438291 -0.17272675 -0.048373166
-0.18845184 0.0075460332 -0.03915888 -0.086150676 -0.12960018 -0.10076331 -0.13847737 -0.097533606
-0.10623884 -0.1969605 -0.14048824 -0.12295169 -0.15259647 -0.03906871 -0.15603189 0.038172208

running_mean f4 [32]
00000000: 95c2 3dbe d7c9 9fbe 712c 6bbe 1251 babd
00000010: 936a 923e 0b71 e93e 1919 ccbe 8c65 7dbd
00000020: 7c82 9abe 22ac 9fbd f7eb 233e b678 37bd
00000030: 39d4 203c 8973 0fbe f4d2 bebe 9f66 fd3d
00000040: 5874 103e 9a09 533e a8f5 733d 6907 babd
00000050: d843 afbd 780c 9e3d 1acf f9bd 6e41 c7bd
00000060: b161 66be f029 053f 725b c3be 0977 60be
00000070: c572 05be 6f5c 2f3e 9fd7 99bd 9df3 383f
-0.18531258 -0.3120868 -0.22966172 -0.09097494 0.28596935 0.45594057 -0.39862898 -0.06186442
-0.30177677 -0.077965036 0.16007982 -0.044792853 0.009816223 -0.14008917 -0.3727032 0.12373089
0.14106882 0.20609131 0.059560448 -0.090834446 -0.08557862 0.07717222 -0.121977046 -0.097292766
-0.22498204 0.52017117 -0.38155705 -0.21920408 -0.13032062 0.17125104 -0.075118296 0.72246724

running_var f4 [32]
00000000: 67ab 8c3e 1219 b33e 3296 5a3e a9f5 833e
00000010: d48b ce3e e1bf 9e3e 1d42 893e 667b 853e
00000020: 9c1a a83e 3686 913e 5d84 9d3e 845f b93e
00000030: ff4b 833e c420 883e 35aa 4f3e 2086 803e
00000040: cb9b 9d3e 2594 783e 6887 b03e 243b 543e
00000050: 0e5b 8b3e d3b5 7d3e 2db9 683e 0d9a 933e
00000060: 2b80 923e b9cf 863e 0bb0 933e 3607 923e
00000070: a1e2 8d3e 59b9 b73e 72c4 933e f535 843e
0.2747452 0.34980065 0.21346357 0.2577336 0.40341055 0.31005767 0.26808253 0.26070708
0.328328 0.28422707 0.30765048 0.36205685 0.25643918 0.26587498 0.20279773 0.2510233
0.30782923 0.24275263 0.34478307 0.20725685 0.27217907 0.24776392 0.22726889 0.2882847
0.2861341 0.26330355 0.28845248 0.28521127 0.27711967 0.35883597 0.28860813 0.25822416

weight f4 [10, 1568]
00000000: 10f3 543c f9ee e9bd 6adb cebc 71d8 f7bb
00000010: 50b0 2dbd 96d8 ef3a 731e d3bd 8e0d b53c
00000020: 5dd0 e13d 2a57 d03d 48c1 a9bc c006 b43d
00000030: f9fd 91bd d298 acbd e8e1 d4bb b939 33bd
00000040: 080d 72bd 82b6 4abe 34f9 36be 9c2d 6cbe
00000050: 1532 0cbe f81d ce3c 398f bc3b bf04 59be
00000060: d3c4 8abe be6b 6dbe c9c3 32bd 4c35 1abc
00000070: 16af ac39 f790 0e3a a41a 2b3c 36fe 1ebd
00000080: 7bbc 93bc 3450 e73d a38e 24bd 2c07 ffbd
00000090: 4470 07bc dcfb b13d 3b22 c63c 9606 9c3d
000000a0: 8c6e 4b3c 8c0a 00be 5c8b 0b3e 87f4 a33d
000000b0: 413f 233e aef0 c4be d0fd 4abf 3d67 a8be
000000c0: 7bb4 32bd 912b 913d fd91 9fbe 7ad3 5abe
000000d0: ac22 cbbd efa9 4c3d 4547 64bd cae6 afbd
000000e0: bd64 03bd 8839 26be b8b1 853c bd04 173d
000000f0: 9ec2 503d 3c5c 8e3d 4f3a 93be 883b 39be
00000100: 3e84 73be 8b01 973d c0b3 133e 1c34 c1be
00000110: b149 febd 0991 fbbd 8154 283d a377 2f3e
00000120: 0e15 803e 89d4 bebe 5ede f8bc 1894 c73d
00000130: ed1b e93e 8de0 9d3d 9dfd ec3d 24e6 1e3b
00000140: 1320 fdbb 9d04 2bba 20c9 223e a7d7 ca3a
00000150: c6da a83d 2bc2 943e eb70 a4bd 8b68 b33d
00000160: 006e 2dbe b0e6 82be e6bc 3ebe 500b 0b3e
00000170: 2660 14be f2d9 da3b f243 72be c449 76be
00000180: de16 81be d9e9 d83b 6bea 933d 027a 85be
00000190: a881 58bd b69c b73b 15b0 e6bc 652a 9f3d
000001a0: 843c cd3d 80de 8fbd 7d24 18bd 9c79 a4bd
000001b0: 5180 133e 3771 03bd f6bc e1bd 96b3 6d3d
000001c0: 0c98 3ebd d6de dc3c cce5 9e3a 79d7 8dbe
000001d0: 66df 53bc 4575 d0bd de96 b2bd 5dc6 fbba
000001e0: d9e9 3a3d 978f 16bd df61 8ebb 792b 193e
000001f0: a935 5fbe f27c afbe f8d4 b23d f408 eb3c
00000200: e894 e63d 5352 86bd f672 9c3c 71c6 7d3c
00000210: f01e 073c 938f fc3c f9ff 3bbd bf20 3f3d
00000220: c8db 6dbd 3fb0 403d e505 eabd c896 83bc
00000230: 8de2 38bd 130c 253e aca7 1a3e 2365 6fbe
00000240: 35bb 03be a8f9 17ba 08fb 0a3d ac86 073c
00000250: d52f 87bd 0e6a 22bd 0881 25bb c162 23be
00000260: 5a06 b0be 491a 36be 8024 763d 82dc a4bd
00000270: 8407 45bd f56d 11bd c753 c8bc be40 05be
00000280: 0ee1 013e d545 243e df19 c03c 32e0 f23d
00000290: 81ea 76bc 5da0 343e 9ad8 eabb caa6 ef3d
000002a0: e94b 2a3d 3892 bdbd 3098 8abd c094 acbc
000002b0: 81e7 193d 392f 3ebc f8f5 223e dd7b fabb
000002c0: edfd 41bd 1b9c aebc b761 28be e4ba cebd
000002d0: 4e1b 8cbd 51cc 36be 66e5 93bc 3efb d83c
000002e0: d62f ecbd b025 4bbe 7d13 f6bd b1b3 7fbc
000002f0: adb0 27be 3805 3ebd cc12 d03c a46f 703d
00000300: b6b8 ec3d 33b0 e3bc 33f1 10bd c067 20be
00000310: fb5f 11bd 692d 5cbc 9778 8e3c 1445 8abd
00000320: a5a3 bd3c 9148 653d d6e5 933c 3a68 0fbe
00000330: 37d1 73be 5161 12be 0073 59bd 9344 263e
00000340: cf31 a1bd f060 8bbd ec62 edbc e1b0 07be
00000350: 6816 debd 9d1a bdbc f165 0fbe 762b 8ebe
00000360: 7089 1dbe 8fb6 d13d 2d46 2abd 0314 a83d
00000370: e2f0 313d 1037 363e 659b ddbc 48e4 eb3b
00000380: ba50 313c 8d49 883c 39e3 b23d 640d 193e
00000390: 8797 293d 7eb3 4e3d e6cf 7b3d 3746 e13c
000003a0: eca1 c83d 699d d23d 4f1c 2dbd 26b7 9abd
000003b0: a19c 0b3d 3d10 b53d 6535 0f3d 641e a93d
000003c0: fd8a f2bc c9a3 9cbe cdad c5be 758d dcbc
000003d0: 050d 16be 5e4a 793c f283 2fbd 055c aa3c
000003e0: bbd0 503d 34ba 023d f629 4d3d ada2 e03d
000003f0: 26e0 a6bd 1f87 4fbe 0122 94bd 3bb1 303e
0.012997404 -0.114225335 -0.02525111 -0.0075636436 -0.042404473 0.00182988 -0.10308542 0.02210119
0.1102607 0.10172875 -0.020722046 0.0879035 -0.071285196 -0.08427586 -0.0064966567 -0.04375622
-0.05909446 -0.19796184 -0.17868501 -0.23064274 -0.1369098 0.025160775 0.005754378 -0.21193217
-0.2710329 -0.23185632 -0.043643747 -0.009412121 0.00032936846 0.00054384716 0.010443363 -0.038816653
-0.01803421 0.112945944 -0.04017509 -0.1245254 -0.008266512 0.086906165 0.024186244 0.07618444
0.012416493 -0.12504023 0.1362738 0.08005624 0.15942098 -0.38464874 -0.7929354 -0.32891265
-0.04362915 0.07088388 -0.31166068 -0.21369734 -0.099187225 0.04996675 -0.05573203 -0.085889414
-0.032078493 -0.16232884 0.016320094 0.036869753 0.05096685 0.06951186 -0.28755423 -0.18089116
-0.23780915 0.07373341 0.14424038 -0.3773507 -0.12416399 -0.12283523 0.041096214 0.17135482
0.25016063 -0.37271526 -0.03037947 0.097450435 0.45529118 0.07708845 0.115718104 0.0024246061
-0.007724771 -0.000652382 0.15897036 0.0015475646 0.08244853 0.29054388 -0.0802935 0.08760174
-0.16936493 -0.25566626 -0.18626747 0.13578534 -0.14489803 0.006678813 -0.23658732 -0.24051577
-0.2521276 0.0066196737 0.07222446 -0.26069647 -0.052858025 0.005603398 -0.028160134 0.07771758
0.10021308 -0.070248604 -0.037144173 -0.08031008 0.14404418 -0.032090392 -0.110223696 0.058032595
-0.046531722 0.026961725 0.0012122928 -0.27703455 -0.01293168 -0.101786174 -0.08720182 -0.0019208897
0.04563317 -0.03675803 -0.0043451632 0.1495799 -0.21797813 -0.34275013 0.08732027 0.028690793
0.1125887 -0.06558671 0.019097786 0.015489207 0.008247122 0.03083018 -0.04589841 0.04666209
-0.058070928 0.04704308 -0.114269055 -0.016063109 -0.04513793 0.16117887 0.15103024 -0.23378424
-0.12864383 -0.00057973946 0.03393081 0.008271854 -0.0660092 -0.039651923 -0.002525391 -0.1595564
-0.34379846 -0.17783464 0.060093403 -0.08049871 -0.04810287 -0.035505254 -0.02445401 -0.13012978
0.12683508 0.16042264 0.023449836 0.11859168 -0.0150705585 0.17639299 -0.007166934 0.11701734
0.0415763 -0.09256405 -0.06767309 -0.021067023 0.037574295 -0.011607938 0.15914142 -0.00764416
-0.047361303 -0.021314671 -0.16443525 -0.1009424 -0.068411455 -0.17851378 -0.018053722 0.02648699
-0.115325615 -0.19838595 -0.12015436 -0.015606807 -0.1637599 -0.046391696 0.025399588 0.05870022
0.11558668 -0.02779398 -0.035386276 -0.15664577 -0.035491925 -0.013438561 0.017391486 -0.06751457
0.02314932 0.055977408 0.01805393 -0.14004603 -0.23810278 -0.14294936 -0.05308819 0.16237096
-0.07870828 -0.06805599 -0.028977834 -0.13251068 -0.108441174 -0.02308398 -0.14003731 -0.27767533
-0.1538446 0.102398984 -0.04157083 0.08206942 0.043442614 0.17794442 -0.027051637 0.007198844
0.010822469 0.016636634 0.087347455 0.14946514 0.041404273 0.050464146 0.061477564 0.027499301
0.09796509 0.1028393 -0.042263325 -0.07554464 0.03408492 0.08840988 0.03496303 0.0825775
-0.02960729 -0.30593708 -0.38609162 -0.02692292 -0.14653404 0.015215484 -0.042850442 0.020795831
0.05098031 0.03191586 0.050088845 0.10968528 -0.08148222 -0.20266388 -0.07233048 0.17255108

bias f4 [10]
00000000: 4077 473d 0e4d c53d 18f1 2c3b 37fd 8ebd
00000010: e146 8cbd 8371 513c e737 f53b d99a 403b
00000020: 192c 35bd 6088 47bc
0.04869771 0.09633838 0.002638882 -0.06981891 -0.068494566 0.012783411 0.0074834707 0.0029389171
-0.044231508 -0.01217851
